going_modular/models/05_going_modular_script_mode_tinyvgg_model.pth (torch, 37218 bytes, 10 tensors)

conv_block_1.0.weight f4 [10, 3, 3, 3]
0.055870537 0.07386174 0.19701977 -0.020721974 0.007895419 -0.15737437 -0.062826924 -0.016738363
-0.022315035 -0.15577075 0.20035455 0.06808193 -0.1621681 -0.053946458 0.17465979 0.17422967
-0.16010657 0.05318435 -0.13454457 0.0018873105 0.17229964 0.20017958 0.16475818 0.06527118
-0.03938071 -0.06625649 0.17152105 -0.12919489 -0.08434854 -0.09748068 0.007091686 0.078930214
-0.07829391 0.11598389 -0.061487645 -0.12777852 -0.11038113 -0.12666641 -0.055594563 0.078004465
0.06953369 -0.18389772 -0.1467937 -0.12208699 -0.11728657 -0.071382545 0.06698017 -0.00289765
-0.034523368 -0.09586334 0.14097859 0.18080316 -0.1219796 0.18575133 0.03428526 -0.09120451
0.19930343 -0.05567333 -0.077045806 0.08666012 0.019259172 0.16916393 0.0749329 0.052881874
-0.12032372 0.20119278 0.13959396 -0.15003107 0.020277934 0.13882215 -0.15868475 -0.0010881893
0.14092532 0.03505356 -0.09891112 0.06477847 0.0047713616 0.047513157 0.055001244 0.086876236
0.05898892 -0.12775362 0.16095254 0.06651011 0.07175917 -0.03516696 -0.019199265 0.14168698
0.18096478 0.068711646 0.012287196 -0.09108893 0.13104537 -0.13886099 -0.040298704 0.05267573
0.10173243 0.06662111 0.13371496 0.20279586 -0.020496385 -0.08795329 -0.010351314 0.11515289
0.16565762 0.0033296216 -0.11373391 0.032494355 0.059881166 -0.116873726 -0.12683335 0.0824232
0.17697984 -0.01643511 -0.0070704473 0.052646957 -0.18381433 0.012571111 -0.14545317 0.04310543
-0.107949406 -0.12187771 0.06103805 0.11538374 -0.18201046 0.07712266 0.15471232 -0.088859655
0.18152723 -0.15178482 -0.14356165 -0.17367949 0.054876275 0.16702853 0.046338852 -0.1915796
-0.067156516 -0.027184268 0.097068004 -0.03396366 -0.019403799 -0.021532847 0.055998538 0.116508976
0.11541531 -0.09970923 -0.1145594 -0.08055748 -0.15233363 -0.072233796 0.111689284 -0.19343631
-0.023399165 0.021748208 0.16864918 -0.0832579 -0.10841693 -0.04920985 -0.18661487 0.06367825
-0.14172815 -0.0513569 -0.18015806 -0.12899183 -0.17548385 0.016101072 -0.15136297 -0.1536468
0.12376186 -0.07482456 -0.17823625 0.042052906 0.16077746 0.089339115 -0.0016685879 0.11702963
-0.051023528 -0.145699 -0.14481424 -0.15593547 0.12900963 -0.01294109 0.08144813 -0.038657233
0.065202445 0.062363587 0.042042013 -0.0979807 -0.033160187 0.014233798 -0.0066456017 0.06291356
0.12802611 -0.06706457 -0.033845354 -0.061980322 0.108041756 -0.11755459 0.08482473 -0.04191022
0.1763053 -0.16849053 -0.019402105 0.09543479 0.13778466 -0.13647032 -0.07681396 0.077061966
0.033112146 -0.08393063 -0.06806333 -0.070884295 0.07357042 0.01016236 0.17818302 -0.16566248
0.17928012 -0.14111415 0.10486791 -0.031122671 -0.1245071 -0.08175636 0.07562126 -0.08028404
-0.030948045 -0.055739097 0.16900542 -0.07304305 -0.1357842 -0.050401863 0.031889006 0.17487463
0.10212596 -0.16229443 0.08004906 -0.07419867 0.09717906 0.11173482 0.071647875 -0.049557276
-0.03942506 -0.15852101 -0.03685657 -0.13059485 -0.14250778 -0.02569475 0.13866608 -0.14047284
-0.019046517 0.10276421 0.10335149 -0.13814661 0.012952376 0.091023445 0.10126015 -0.01747433
00000000: 81d8 643d d344 973d 8dbf 493e 21c1 a9bc
00000010: ca5b 013c bf26 21be 67ab 80bd e41e 89bc
00000020: 05ce b6bc 5e82 1fbe be29 4d3e 8a6e 8b3d
00000030: 650f 26be f6f6 5cbd 04da 323e 4369 323e
00000040: faf2 23be d5d7 593d 0dc6 09be a25f f73a
00000050: 516f 303e e0fb 4c3e 5eb6 283e e5ac 853d
00000060: ab4d 21bd 7cb1 87bd 37a3 2f3e aa4b 04be
00000070: edbe acbd f3a3 c7bd 6061 e83b 2aa6 a13d
00000080: 8f58 a0bd f688 ed3d 78da 7bbd 5fd8 02be
00000090: 800f e2bd d7b4 01be 20b7 63bd cec0 9f3d
000000a0: ae67 8e3d af4f 3cbe 1651 16be be08 fabd
000000b0: f133 f0bd 0331 92bd e62c 893d 80e6 3dbb
000000c0: 6068 0dbd 0054 c4bd b15c 103e 7724 393e
000000d0: 71d0 f9bd 9935 3e3e b36e 0c3d 6ec9 babd
000000e0: 3316 4c3e b809 64bd 31ca 9dbd dc7a b13d
000000f0: 69c5 9d3c 4f39 2d3e 6c76 993d aa9a 583d
00000100: 486c f6bd 7b05 4e3e b8f1 0e3e bfa1 19be
00000110: e91d a63c 6527 0e3e 417e 22be 93a1 8eba
00000120: ba4e 103e 5294 0f3d ea91 cabd 93aa 843d
00000130: 1559 9c3b 289d 423d fc48 613d 2bec b13d
00000140: 5e9e 713d d8d1 02be bed0 243e 7436 883d
00000150: 79f6 923d 3b0b 10bd c747 9dbc 6416 113e
00000160: d54e 393e b1b8 8c3d 3c50 493c d58c babd
00000170: c230 063e 9331 0ebe 4110 25bd 82c2 573d
00000180: 1859 d03d a670 883d 93ec 083e b8a9 4f3e
00000190: 09e8 a7bc db20 b4bd 8f98 29bc 47d5 eb3d
000001a0: 27a2 293e c835 5a3b 53ed e8bd cd18 053d
000001b0: f445 753d 7e5b efbd 9ae0 01be 7fcd a83d
000001c0: 343a 353e eca2 86bc 36af e7bb 56a4 573d
000001d0: d339 3cbe 10f7 4d3c adf1 14be 528f 303d
000001e0: 9414 ddbd 059b f9bd 0903 7a3d 4f4e ec3d
000001f0: f360 3abe 7cf2 9d3d e86c 1e3e 0dfc b5bd
00000200: 46e2 393e 7b6d 1bbe d301 13be 09d9 31be
00000210: f2c5 603d 8709 2b3e cfcd 3d3d 712d 44be
00000220: 5b89 89bd 8bb1 debc 97cb c63d 7b1d 0bbd
00000230: b7f4 9ebc a765 b0bc b95e 653d 429c ee3d
00000240: dd5e ec3d 5a34 ccbd 1e9e eabd 52fb a4bd
00000250: 59fd 1bbe 50ef 93bd 5abd e43d 2b14 46be
00000260: 9baf bfbc 4c29 b23c 5fb2 2c3e 1e83 aabd
00000270: b209 debd 4590 49bd f817 3fbe be69 823d
00000280: 2f21 11be 9d5b 52bd 5b7b 38be 6f16 04be
00000290: 0ab2 33be 65e6 833c e5fe 1abe 9655 1dbe
000002a0: dc76 fd3d 9e3d 99bd 9083 36be ab3f 2c3d
000002b0: d9a2 243e 6df7 b63d 85b4 daba 3bad ef3d
000002c0: 0cfe 50bd 1e32 15be 2f4a 14be 8cad 1fbe
000002d0: 1a1b 043e de06 54bc 47ce a63d 0c57 1ebd
000002e0: dc88 853d f670 7f3d 3f34 2c3d 1baa c8bd
000002f0: fad2 07bd e034 693c 59c3 d9bb d3d8 803d
00000300: 4719 033e 2659 89bd 6da1 0abd 14df 7dbd
00000310: ff44 dd3d 76c0 f0bd 97b8 ad3d 0daa 2bbd
00000320: 6089 343e c888 2cbe 2af1 9ebc 5173 c33d
00000330: 6c17 0d3e e0be 0bbe a350 9dbd aad2 9d3d
00000340: 9aa0 073d d2e3 abbd ca64 8bbd c92b 91bd
00000350: 17ac 963d 0780 263c 9c75 363e 6da3 29be
00000360: 3595 373e 3a80 10be fdc4 d63d f9f4 febc
00000370: 94fd febd e16f a7bd 52df 9a3d f56b a4bd
00000380: c186 fdbc ae4e 64bd c20f 2d3e 9897 95bd
00000390: 030b 0bbe 2f72 4ebd 0c9e 023d 5612 333e
000003a0: 6a27 d13d 8330 26be c3f0 a33d 79f5 97bd
000003b0: d105 c73d 3ad5 e43d 1fbc 923d 92fc 4abd
000003c0: 2c7c 21bd 5553 22be eaf6 16bd a8ba 05be
000003d0: 8fed 11be cc7d d2bc 7bfe 0d3e 1dd8 0fbe
000003e0: 7107 9cbc 0b76 d23d f2a9 d33d 4e76 0dbe
000003f0: 3436 543c 806a ba3d 7b61 cf3d 5326 8fbc

conv_block_1.0.bias f4 [10]
0.0638728 -0.06879175 -0.047657076 -0.09332766 -0.12381416 0.056649905 0.090647675 0.15429011
-0.14970829 -0.014862125
00000000: becf 823d b0e2 8cbd 1134 43bd 9222 bfbd
00000010: 4792 fdbd bb09 683d 7da5 b93d 3afe 1d3e
00000020: 214d 19be 4580 73bc

conv_block_1.2.weight f4 [10, 10, 3, 3]
0.08801802 -0.07540409 -0.041286755 -0.007863318 0.022740157 0.060485102 -0.067880176 -0.04419563
0.035817116 0.051211514 0.05351699 -0.091101564 -0.044765793 -0.024588585 -0.008873038 0.028774299
0.090671085 -0.037918784 -0.09282377 -0.0234753 0.058826774 -0.10382961 0.0091429185 0.03619174
0.019204793 -0.011838807 -0.050180707 -0.026728975 -0.07424572 -0.001099372 0.057552967 -0.0693933
0.014150248 -0.080940194 0.0025924903 -0.051762793 0.087979734 -0.076664254 0.017044785 -0.08302338
0.06562772 0.02323284 -0.037717424 0.08318877 0.049797945 -0.048815504 0.0900377 0.075710766
0.022348661 -0.023487795 -0.04812621 0.079761595 0.015280482 0.091779605 0.045337595 -0.106410496
-0.064186454 0.09387546 0.0754291 0.015177955 0.0021657054 -0.0530252 -0.0579069 -0.06314531
0.038931374 -0.045754686 -0.040751666 0.0032879214 0.097066686 0.06523388 -0.060851663 -0.08133033
-0.009330625 0.041128643 -0.091177925 0.10062259 -0.014674617 0.011790243 -0.091075085 -0.06974004
-0.00984729 -0.050245013 -0.012479635 0.05625874 0.10365528 -0.007878489 0.09756269 0.007295794
-0.019211609 -0.03481429 0.082258694 -0.046524346 0.056565527 -0.09921535 0.013975164 0.0032814487
-0.02005989 0.0415264 0.0421929 -0.049922254 -0.023869999 -0.0954131 0.034163363 0.08169032
0.08598714 -0.09661354 -0.104455166 0.08903008 -0.062481795 -0.043173727 0.023982095 -0.076554365
0.031605568 0.0046706125 0.04655053 -0.016951427 -0.024061343 0.04066797 -0.025327252 0.05929119
-0.07086647 -0.025842205 -0.005028829 0.007938002 -0.0012446066 -0.02174669 -0.04295144 -0.0009040661
-0.05257551 0.067683026 0.03493697 0.03667019 0.066189304 0.06657629 0.024256313 -0.01901824
0.053196013 -0.052440293 0.0009183956 0.084896475 0.077081956 0.06727087 -0.08725158 -0.029849583
0.043077376 0.040332306 0.08507359 -0.008499766 0.07647728 0.032677546 0.066016056 -0.07987155
-0.08108391 0.051224675 -0.06428036 -0.083610706 0.017109761 0.0038614606 0.05562242 0.031759884
0.06835961 0.00314543 -0.048698004 0.007775006 -0.010513045 0.03988446 -0.07117844 0.0017884113
-0.04774504 0.09693867 0.024820555 -0.07242977 0.0626237 -0.040451374 -0.09098901 -0.06099472
0.092646524 0.03686281 -0.10498995 0.0336655 0.046229742 -0.08421864 0.07652269 0.03554858
-0.0126868775 0.007495281 -0.045026414 -0.053161614 0.09847977 -0.08234963 -0.09747198 -0.0674853
-0.07229142 0.04515425 -0.06823968 0.059082024 0.06486411 -0.029876947 0.10963139 -0.05512172
-0.07628513 0.003499487 -0.0137518095 0.04939044 0.041856226 -0.094736576 0.07292174 -0.01597874
-0.043912236 0.0442561 -0.0048385668 0.029122759 0.052851062 -0.056663148 -0.07761321 0.018190417
0.050687082 -0.08135453 0.04945404 -0.04618491 0.04658977 -0.08860803 -0.014139734 0.030781053
-0.07114031 -0.027423745 -0.095904835 -0.027637064 0.012339766 0.05325282 0.08911572 -0.09095277
0.056791857 0.008664332 -0.09491928 0.081517726 -0.08382747 0.082568556 -0.10154998 -0.09272132
-0.050710198 0.014748001 0.06812831 0.09375724 0.02138574 -0.016473975 0.0006371949 -0.052061524
-0.057446916 -0.07924677 0.05026888 -0.0986684 -0.052323297 -0.038204864 0.0623248 -0.05016549
00000000: cb42 b43d 766d 9abd 4d1c 29bd 25d5 00bc
00000010: 9149 ba3c 3abf 773d c304 8bbd 7a06 35bd
00000020: f8b4 123d 2ac3 513d a234 5b3d 7593 babd
00000030: 565c 37bd 006e c9bc 3860 11bc 14b8 eb3c
00000040: c3b1 b93d ba50 1bbd 641a bebd 464f c0bc
00000050: 58f4 703d 9ea4 d4bd 2ecc 153c ca3d 143d
00000060: 5f53 9d3c 8ef7 41bc 498a 4dbd b9f6 dabc
00000070: 240e 98bd ce18 90ba a9bc 6b3d 131e 8ebd
00000080: 71d6 673c f9c3 a5bd c5e6 293b 3905 54bd
00000090: b82e b43d 2602 9dbd 81a1 8b3c 2908 aabd
000000a0: d367 863d cc52 be3c 967d 1abd e05e aa3d
000000b0: eef8 4b3d c4f2 47bd b065 b83d 3f0e 9b3d
000000c0: 8a14 b73c 7a69 c0bc fd1f 45bd 0c5a a33d
000000d0: fd5a 7a3c f2f6 bb3d eab3 393d bfed d9bd
000000e0: 3074 83bd c741 c03d 927a 9a3d f5ac 783c
000000f0: 82ee 0d3b f430 59bd c92f 6dbd 5452 81bd
00000100: 8176 1f3d 4469 3bbd 38eb 26bd 2b7a 573b
00000110: e6ca c63d 5799 853d 983f 79bd 8490 a6bd
00000120: 7adf 18bc 8276 283d 7ebb babd 3713 ce3d
00000130: ce6d 70bc dd2b 413c 9385 babd ded3 8ebd
00000140: 8756 21bc b7cd 4dbd 6277 4cbc 916f 663d
00000150: 3849 d43d c714 01bc f3ce c73d 8e11 ef3b
00000160: aa61 9dbc 6e99 0ebd 3f77 a83d 5090 3ebd
00000170: 41b1 673d 6b31 cbbd 16f8 643c 930d 573b
00000180: a354 a4bc 9617 2a3d 76d2 2c3d 477b 4cbd
00000190: 048b c3bc f267 c3bd e2ee 0b3d 414d a73d
000001a0: 071a b03d 52dd c5bd 97ec d5bd 6755 b63d
000001b0: e9ec 7fbd efd6 30bd 1976 c43c 89c8 9cbd
000001c0: d774 013d f00b 993b c5ab 3e3d b8dd 8abc
000001d0: 4b1c c5bc 7593 263d 197b cfbc 52db 723d
000001e0: 7122 91bd 08b3 d3bc e0c8 a4bb 650e 023c
000001f0: 1122 a3ba 1d26 b2bc d9ed 2fbd d9fe 6cba
00000200: 6b59 57bd 669d 8a3d 111a 0f3d 7b33 163d
00000210: 428e 873d 2659 883d 2db5 c63c 24cc 9bbc
00000220: 10e4 593d a2cb 56bd 7cc0 703a 34de ad3d
00000230: 25dd 9d3d 4fc5 893d f5b0 b2bd 1d87 f4bc
00000240: e771 303d 7d33 253d 103b ae3d 9a42 0bbc
00000250: 1fa0 9c3d e4d8 053d 6d33 873d b293 a3bd
00000260: 520f a6bd f7d0 513d 6ca5 83bd 173c abbd
00000270: c529 8c3c 8f10 7d3b 56d4 633d a716 023d
00000280: 2000 8c3d 8f23 4e3b 8f77 47bd 7ac5 fe3b
00000290: e83e 2cbc e35d 233d 00c6 91bd 2069 ea3a
000002a0: 4e90 43bd c887 c63d 7a54 cb3c 0f56 94bd
000002b0: db40 803d 57b0 25bd 7258 babd 99d5 79bd
000002c0: 76bd bd3d 75fd 163d f904 d7bd d6e4 093d
000002d0: 665b 3d3d d37a acbd eeb7 9c3d 639b 113d
000002e0: 9fdc 4fbc f99a f53b 9e6d 38bd febf 59bd
000002f0: c3af c93d eca6 a8bd 649f c7bd bc35 8abd
00000300: 860d 94bd aaf3 383d 3fc1 8bbd feff 713d
00000310: 79d7 843d 80c0 f4bc 6c86 e03d 50c7 61bd
00000320: 613b 9cbd a657 653b 454f 61bc a14d 4a3d
00000330: 6f71 2b3d 4005 c2bd fe57 953d d9e5 82bc
00000340: 51dd 33bd e245 353d d78c 9ebb da92 ee3c
00000350: 5b7a 583d 9e17 68bd adf3 9ebd 1204 953c
00000360: 429d 4f3d 349d a6bd 5290 4a3d 632c 3dbd
00000370: ead4 3e3d 2078 b5bd 58aa 67bc 8c28 fc3c
00000380: 03b2 91bd c3a7 e0bc c169 c4bd 2067 e2bc
00000390: bb2c 4a3c a11f 5a3d 4d82 b63d 7245 babd
000003a0: 949e 683d d8f4 0d3c 0a65 c2bd c4f2 a63d
000003b0: bdad abbd b419 a93d 70f9 cfbd ade4 bdbd
000003c0: 7fb5 4fbd 99a1 713c db86 8b3d cc03 c03d
000003d0: 2631 af3c 6ef4 86bc 6d09 273a 773e 55bd
000003e0: 754d 6bbd 214c a2bd bee6 4d3d a812 cabd
000003f0: f450 56bd b47c 1cbd 4a48 7f3d 547a 4dbd

conv_block_1.2.bias f4 [10]
0.036856182 -0.06823883 -0.086138025 0.007159182 -0.036122173 -0.0637464 -0.1043765 -0.095743746
-0.05458703 0.05858632
00000000: 82f6 163d cdc0 8bbd 2269 b0bd 9297 ea3b
00000010: d8f4 13bd 798d 82bd 59c3 d5bd 4c15 c4bd
00000020: a696 5fbd 36f8 6f3d

conv_block_2.0.weight f4 [10, 10, 3, 3]
-0.08488545 -0.002599516 0.07061455 -0.04950475 -0.041656464 -0.03773168 0.06557288 0.090190895
0.039161954 -0.050216984 0.07688446 -0.09147205 -0.08191713 0.033209715 0.04882025 0.06665595
0.03892791 -0.045689497 -0.029385548 -0.04462999 -0.0022178853 -0.015675727 -0.053394973 0.04315779
0.05954947 0.018933289 0.058056388 -0.057117652 -0.05685144 -0.01382637 -0.023734933 -0.09203501
-0.005058871 -0.073042296 0.055191677 -0.05265813 -0.083704636 0.009441293 -0.010602296 0.007249256
0.044447344 0.053639125 0.073008895 -0.0798124 -0.01799134 -0.06626183 -0.012188461 0.038046006
-0.061644457 -0.09285662 -0.06302184 0.01400028 -0.05903741 0.09682274 -0.06619789 0.0051491708
-0.08107366 -0.061887223 -0.066785336 0.07505465 -0.051608402 0.02054327 -0.02737245 0.08465453
-0.011068772 0.09615405 -0.00083473115 -0.09087967 0.07128965 0.01472367 0.107577324 0.08276609
-0.054968767 0.09194092 0.08848091 -0.00081145763 -0.004597649 0.011530794 0.09159919 -0.048160724
-0.08426423 0.05797739 -0.04881677 0.09570489 0.06644351 -0.07575828 -0.016213117 0.03715263
-0.088659935 -0.030277219 0.060484033 0.027924607 -0.09249579 -0.08403949 -0.04468967 -0.006604529
-0.10359041 -0.06815596 0.0016026718 0.038243983 0.08350695 -0.082379095 0.07187376 0.08945188
-0.060335584 -0.04162576 -0.01018511 -0.09394688 -0.07520823 0.071865946 0.017916271 0.089860946
-0.03955334 -0.033016637 0.09502064 -0.049682785 0.024480743 0.09663201 0.03327559 0.0029574055
-0.017192602 0.030875519 0.014297432 0.004562496 0.11183597 -0.06999015 0.11511735 -0.060652196
0.12015509 0.046566643 0.061612766 -0.0059957113 0.1301624 -0.032019835 0.035790455 0.022178976
0.028806625 0.0028372277 0.07063537 0.041390542 0.094191 -0.06796618 -0.089635566 -0.01968987
0.014970608 -0.04274296 0.07902893 -0.10432734 -0.016519904 -0.060537018 -0.0890254 0.029743724
-0.053258516 0.07326745 0.05028436 0.04659924 -0.025884625 0.110275984 -0.100922674 -0.027929401
-0.06963264 0.09161494 0.09636683 0.089411505 0.034839593 0.04192125 -0.104289055 0.088995464
0.025074206 0.0730103 0.014728494 0.030744694 0.055772796 0.011633271 0.050435007 -0.02921404
-0.01050293 -0.07042506 0.08266818 -0.01860575 0.024764301 -0.06922276 -0.083191134 0.03200687
-0.004524301 -0.048799742 -0.02585764 0.051832326 -0.08633126 0.055379994 -0.039205603 -0.055688217
0.015078366 0.005726218 0.019328304 -0.03273379 -0.018106833 -0.087735504 0.07968738 -0.054342046
0.06932229 0.09886456 0.039437257 -0.028132796 0.070202164 -0.025844358 0.070074655 -0.036932044
-0.036473393 0.054349165 -0.06201652 -0.097730644 -0.10612619 0.022122262 0.0693523 0.087072
-0.022739971 -0.04870713 -0.08846881 -0.0783714 0.085006885 0.004936695 0.08152838 -0.04253659
0.09328397 -0.07252024 -0.0524701 0.058494605 0.006566902 0.084506 0.032177262 0.06608962
0.0312962 0.09044736 0.070318826 -0.033554897 0.06636105 0.09134249 -0.0138492435 0.0250419
0.08621731 0.04802794 -0.007915087 -0.09930507 0.07362034 0.07356379 -0.077039376 0.007078437
0.038540367 -0.043531127 -0.03462454 0.062933445 0.099937014 0.00850296 -0.056031752 0.01913742
00000000: 6cd8 adbd a45c 2abb 5c9e 903d 7ec5 4abd
00000010: f89f 2abd 898c 1abd 134b 863d 01b6 b83d
00000020: 4968 203d 53b0 4dbd 9a75 9d3d b355 bbbd
00000030: 2bc4 a7bd e906 083d bef7 473d ea82 883d
00000040: df72 1f3d e924 3bbd f6b9 f0bc f0cd 36bd
00000050: f159 11bb 626a 80bc b0b4 5abd 39c6 303d
00000060: 25ea 733d fc19 9b3c 89cc 6d3d 33f4 69bd
00000070: 0edd 68bd 0088 62bc c36f c2bc da7c bcbd
00000080: e3c4 a5bb 3397 95bd ab10 623d 0db0 57bd
00000090: 566d abbd a7af 1a3c 41b5 2dbc 2b8b ed3b
000000a0: 6b0e 363d b3b4 5b3d b085 953d af74 a3bd
000000b0: 9362 93bc 48b4 87bd 1cb2 47bc 21d6 1b3d
000000c0: e67e 7cbd 9d2b bebd 9811 81bd 6e61 653c
000000d0: 36d1 71bd 004b c63d c292 87bd 60ba a83b
000000e0: f209 a6bd 757d 7dbd c0c6 88bd 41b6 993d
000000f0: 5563 53bd 5c4a a83c 303c e0bc 5b5f ad3d
00000100: cb59 35bc 6aec c43d dcd1 5aba 1f1f babd
00000110: 4f00 923d 8c3b 713c 8051 dc3d 4581 a93d
00000120: ee26 61bd 854b bc3d 7b35 b53d 00b8 54ba
00000130: e0a7 96bb a8eb 3c3c 5b98 bb3d 2e44 45bd
00000140: ba92 acbd b379 6d3d 18f4 47bd ed00 c43d
00000150: 8913 883d 2827 9bbd 5fd1 84bc 5b2d 183d
00000160: 5793 b5bd ee07 f8bc 1bbe 773d 25c2 e43c
00000170: 6f6e bdbd e51c acbd 840c 37bd ce6a d8bb
00000180: 3527 d4bd 5a95 8bbd be10 d23a b9a5 1c3d
00000190: b105 ab3d 5fb6 a8bd 8d32 933d 8c32 b73d
000001a0: 7222 77bd c67f 2abd 73df 26bc 3967 c0bd
000001b0: c606 9abd 742e 933d 25c5 923c 0409 b83d
000001c0: af02 22bd 743c 07bd 2e9a c23d 2d80 4bbd
000001d0: d78b c83c 01e7 c53d fc4b 083d 08d1 413b
000001e0: 80d7 8cbc a8ee fc3c c73f 6a3c fe80 953b
000001f0: 420a e53d ff56 8fbd a5c2 eb3d 706e 78bd
00000200: df13 f63d aabc 3e3d ab5d 7c3d ac77 c4bb
00000210: 4b49 053e 3b27 03bd 0399 123d afb0 b53c
00000220: dffb eb3c c8f0 393b 47a9 903d 2189 293d
00000230: 36e7 c03d da31 8bbd da92 b7bd a64c a1bc
00000240: 4847 753c 3e13 2fbd ebd9 a13d 93a9 d5bd
00000250: c054 87bc aaf5 77bd f352 b6bd 1ca9 f33c
00000260: 9a25 5abd 3f0d 963d f9f6 4d3d d8de 3e3d
00000270: fe0b d4bc 60d8 e13d 8cb0 cebd 33cc e4bc
00000280: 8f9b 8ebd 9da0 bb3d f95b c53d 611d b73d
00000290: f6b3 0e3d 9eb5 2b3d 8095 d5bd 4143 b63d
000002a0: 6c68 cd3c 6d86 953d c84f 713c 4cdc fb3c
000002b0: 0472 643d 7a99 3e3c f094 4e3d 4852 efbc
000002c0: 7b14 2cbc 043b 90bd ef4d a93d 166b 98bc
000002d0: 81de ca3c aac4 8dbd 1d60 aabd a319 033d
000002e0: 9640 94bb 3de2 47bd 67d3 d3bc 224e 543d
000002f0: 72ce b0bd 22d6 623d 0e96 20bd 5419 64bd
00000300: 400b 773c 00a3 bb3b 6456 9e3c de13 06bd
00000310: c854 94bc acae b3bd 2333 a33d c495 5ebd
00000320: d8f8 8d3d 8179 ca3d f688 213d c076 e6bc
00000330: 27c6 8f3d 8cb7 d3bc 4d83 8f3d 0e46 17bd
00000340: 2065 15bd 3b9d 5e3d 0905 7ebd 0127 c8bd
00000350: b058 d9bd bf39 b53c 9408 8e3d ce52 b23d
00000360: 2d49 babc 2181 47bd 232f b5bd 2f81 a0bd
00000370: 1718 ae3d 00c4 a13b 5af8 a63d d93a 2ebd
00000380: ab0b bf3d 7e85 94bd e3ea 56bd 0a98 6f3d
00000390: 2b2f d73b 7b11 ad3d 4ecc 033d ff59 873d
000003a0: 7230 003d 773c b93d 5103 903d dc70 09bd
000003b0: 4de8 873d c511 bb3d f0e7 62bc ac24 cd3c
000003c0: b392 b03d f2b8 443d 48ae 01bc 7560 cbbd
000003d0: 43c6 963d 9da8 963d d2c6 9dbd 3cf2 e73b
000003e0: 81dc 1d3d b24d 32bd 76d2 0dbd 40e3 803d
000003f0: c7ab cc3d 0050 0b3c 8d81 65bd 14c6 9c3c

conv_block_2.0.bias f4 [10]
0.061882142 0.08160679 -0.10313549 -0.06847289 0.040408377 -0.013390329 0.044590134 -0.04902526
-0.06345534 0.06851651
00000000: 2178 7d3d 7621 a73d b338 d3bd 843b 8cbd
00000010: 4183 253d 1c63 5bbc 25a4 363d b6ce 48bd
00000020: e0f4 81bd 6252 8c3d

conv_block_2.2.weight f4 [10, 10, 3, 3]
0.08573521 0.02739839 0.010171071 0.078010835 -0.07561277 0.014907757 0.04354396 -0.031335596
0.101135686 -0.095340006 -0.023360772 -0.066590875 -0.013033343 -0.0951745 -0.06636196 0.110820636
-0.015326799 0.08862084 0.07815107 0.03668256 -0.07788785 0.033472076 -0.060353518 0.08935498
-0.03885752 0.012734071 -0.009614145 -0.04266109 0.011776596 -0.012150205 -0.048381332 0.008845325
-0.006025305 0.033999577 0.04108684 -0.08771031 0.10887179 0.037094634 -0.07568063 -0.022860143
-0.07038966 0.0637088 -0.008123609 0.038066 -0.019153597 0.040228046 0.065389186 0.05388265
0.088647835 0.018592037 0.038274143 0.09337721 0.020737203 -0.038997333 -0.037465516 -0.044962846
0.084496595 -0.051691875 0.063306585 0.10649896 0.08587831 -0.059887704 -0.068458475 0.015447535
-0.065519355 0.038607948 0.07007059 -0.011394821 0.025410883 -0.076112695 0.058509596 0.004285641
-0.006644245 -0.021811316 -0.0054768454 -0.050802846 0.0016274626 -0.08618501 0.021446994 0.09770918
0.09848061 0.039885484 0.0754318 0.091581665 0.09957691 0.03163352 0.041168906 -0.06589437
0.044443455 0.0943926 -0.04850983 -0.0009939882 0.09755228 -0.064987816 0.02094962 -0.0007364128
0.080431536 -0.067792706 -0.050565902 0.09243921 0.09377048 0.044718135 0.09776643 -0.09699086
0.0041846046 0.033434577 0.027866177 -0.02496203 0.046477124 0.09238127 -0.019075323 0.08740829
-0.045286633 -0.073212035 0.08585315 -0.025991479 0.08777466 -0.079618014 -0.06822269 0.032923818
-0.060775194 0.07240287 -0.09519118 -0.08217073 0.012482134 -0.0144727975 0.10882301 -0.056575008
0.09359272 -0.025585933 -0.010820551 0.06646262 0.074695066 -0.015370771 0.04467677 -0.09630293
-0.05911277 -0.05755971 0.052110862 -0.08851859 -0.09028699 -0.06822242 -0.016571319 0.11028836
0.0066708536 0.019714441 -0.039815214 -0.044573054 -0.034438405 0.058768157 -0.060613055 0.03842801
0.04439894 0.0071698725 0.026670523 -0.026106514 -0.08504565 -0.01777915 0.01636815 -0.0131671205
-0.04240167 -0.10387211 -0.07826674 -0.0030381659 -0.019434387 -0.04012577 0.010873406 0.112063654
0.0951157 0.01568843 0.023819631 0.049330924 -0.06466028 -0.07204361 0.09205147 0.05387228
-0.10905031 -0.030932754 0.097668186 0.06715283 0.008388288 -0.09176846 0.025544101 -0.08242747
0.09203872 -0.10720258 -0.051474463 0.0134718 0.07215291 0.0038484966 0.049041618 -0.040342752
-0.02077712 0.08621695 -0.0690338 0.06076946 0.022901919 0.008472596 -0.061834358 -0.0487667
-0.079159 0.06553688 -0.040122703 -0.029175153 0.02492103 0.0057057883 -0.048220556 0.097380154
-0.07770592 0.05850377 0.04950726 -0.07500995 0.08571239 0.03753448 -0.015382696 -0.07129172
0.07073389 -0.049620416 0.10019612 -0.032977153 0.05583203 -0.056003653 -0.02784421 0.09722226
0.048502933 0.06968739 -0.07787736 -0.10181922 -0.07019987 -0.03477182 0.039150584 -0.02218202
-0.072829574 0.1015619 0.045928016 0.056640465 -0.06817939 -0.101984374 -0.11578074 -0.03153486
0.08965055 0.054397494 -0.01758657 0.072608985 0.010186985 0.07050652 -0.019145511 -0.07024847
-0.046964172 0.049719237 0.047496982 0.10437139 -0.09220809 0.029952925 0.033354096 0.026358692
00000000: f195 af3d 9772 e03c 90a4 263c 25c4 9f3d
00000010: deda 9abd aa3f 743c 275b 323d c159 00bd
00000020: 3a20 cf3d 9f41 c3bd 175f bfbc cc60 88bd
00000030: cd89 55bc d9ea c2bd c7e8 87bd eef5 e23d
00000040: 411d 7bbc d87e b53d ab0d a03d 7440 163d
00000050: aa83 9fbd 041a 093d 4035 77bd beff b63d
00000060: 1029 1fbd 91a2 503c a684 1dbc 65bd 2ebd
00000070: a0f2 403c a711 47bc 812b 46bd fbeb 103c
00000080: ec6f c5bb 2443 0b3d ad4a 283d 77a1 b3bd
00000090: 2cf8 de3d 8bf0 173d 72fe 9abd 3245 bbbc
000000a0: 7428 90bd c279 823d e318 05bc 18eb 1b3d
000000b0: 01e8 9cbc 2ac6 243d c4ea 853d 0eb4 5c3d
000000c0: ff8c b53d 544e 983c 59c5 1c3d 8d3c bf3d
000000d0: 11e1 a93c abbb 1fbd 7175 19bd f62a 38bd
000000e0: 8d0c ad3d dcba 53bd e2a6 813d 201c da3d
000000f0: f8e0 af3d cf4c 75bd f533 8cbd a817 7d3c
00000100: 032f 86bd 5e23 1e3d 2b81 8f3d 58b1 3abc
00000110: 7c2a d03c f9e0 9bbd c2a7 6f3d 906e 8c3b
00000120: f7b7 d9bb a5ad b2bc 1c77 b3bb a516 50bd
00000130: 9550 d53a c481 b0bd 9bb1 af3c c01b c83d
00000140: 34b0 c93d f65e 233d fd7b 9a3d 2b8f bb3d
00000150: fbee cb3d 2692 013d baa0 283d a1f3 86bd
00000160: 570a 363d e850 c13d 3eb2 46bd b648 82ba
00000170: 7dc9 c73d 5518 85bd 8a9e ab3c d40b 41ba
00000180: 4ab9 a43d e7d6 8abd 311e 4fbd c550 bd3d
00000190: bd0a c03d 5d2a 373d c439 c83d 25a3 c6bd
000001a0: 021f 893b b2f2 083d 9c47 e43c 2c7d ccbc
000001b0: cc5e 3e3d 6432 bd3d da43 9cbc 1e03 b33d
000001c0: 7a7e 39bd 31f0 95bd c7d3 af3d 15ec d4bc
000001d0: 33c3 b33d c50e a3bd 56b8 8bbd 20db 063d
000001e0: 69ef 78bd f547 943d 98f3 c2bd 2149 a8bd
000001f0: dd81 4c3c 501f 6dbc 99de de3d 32bb 67bd
00000200: 8aad bf3d 9799 d1bc ae48 31bc 8e1d 883d
00000210: baf9 983d b0d5 7bbc fdfe 363d 783a c5bd
00000220: 3b20 72bd bbc3 6bbd 3372 553d 3c49 b5bd
00000230: 63e8 b8bd 32b8 8bbd 93c0 87bc ddde e13d
00000240: 2d97 da3b 2e80 a13c 4715 23bd 3c92 36bd
00000250: 490f 0dbd e1b6 703d 6545 78bd b066 1d3d
00000260: aadb 353d 40f1 ea3b 247c da3c 54dd d5bc
00000270: 6a2c aebd 94a5 91bc 8016 863c e8ba 57bc
00000280: 60ad 2dbd e7ba d4bd 504a a0bd f71b 47bb
00000290: dd34 9fbc eb5a 24bd 5f26 323c a181 e53d
000002a0: 05cc c23d 0685 803c 6321 c33c 390f 4a3d
000002b0: 9c6c 84bd 9a8b 93bd 7b85 bc3d 2ea9 5c3d
000002c0: c555 dfbd b066 fdbc 4206 c83d 6c87 893d
000002d0: 086f 093c 1af1 bbbd dd41 d13c bccf a8bd
000002e0: cc7e bc3d 078d dbbd e3d6 52bd d3b8 5c3c
000002f0: e8c4 933d 0f37 7c3b dddf 483d 713e 25bd
00000300: c734 aabc 8392 b03d 9861 8dbd 66e9 783d
00000310: ce9c bb3c a5d0 0a3c 0646 7dbd 97bf 47bd
00000320: 1d1e a2bd 3338 863d b457 24bd bb00 efbc
00000330: 3027 cc3c 9ff7 ba3b eb82 45bd 3f6f c73d
00000340: 4824 9fbd a6a1 6f3d 20c8 4a3d d19e 99bd
00000350: fa89 af3d c1bd 193d b407 7cbc 6501 92bd
00000360: eedc 903d c73e 4bbd a033 cd3d 0d13 07bd
00000370: 20b0 643d 1664 65bd 8a19 e4bc 771c c73d
00000380: 03ab 463d 43b8 8e3d 2a7e 9fbd 9886 d0bd
00000390: f3c4 8fbd e56c 0ebd 5d5c 203d 11b7 b5bc
000003a0: ac27 95bd afff cf3d 041f 3c3d d5ff 673d
000003b0: a3a1 8bbd 2fdd d0bd 741e edbd b32a 01bd
000003c0: b59a b73d e8cf 5e3d b611 90bc 05b4 943d
000003d0: 50e7 263c b965 903d 0cd7 9cbc 6ede 8fbd
000003e0: 815d 40bd 66a6 4b3d 328c 423d abc0 d53d
000003f0: 98d7 bcbd d65f f53c 4e9e 083d 2fee d73c

conv_block_2.2.bias f4 [10]
-0.021699231 -0.03721914 -0.027114756 0.09042129 0.08519693 -0.058185928 0.0034223609 0.03800268
-0.07174002 0.030749474
00000000: 96c2 b1bc 1973 18bd c41f debc cc2e b93d
00000010: ba7b ae3d 5e54 6ebd b049 603b b3a8 1b3d
00000020: 6eec 92bd 52e6 fb3c

classifier.1.weight f4 [3, 1690]
-0.034595944 -0.0036339767 -0.011959998 -0.027443338 -0.032114867 -0.0043370132 -0.018250782 -0.01863834
-0.01862244 0.010698879 -0.023918796 -0.028383758 -0.024252327 -0.0036560649 -0.01549921 -0.0055791843
0.00068622775 -0.004724302 -0.02370509 0.0057697785 0.01583191 -0.0078545725 -0.0018231419 0.0013480069
-0.0024547665 -0.005706018 -0.021227617 -0.01766662 -0.016696395 -0.0022605197 -0.027213993 -0.017563364
-0.0105108265 -0.013717748 0.0013602448 0.009428586 -0.021767575 -0.013043483 -0.015518808 -0.014441582
-0.0069303913 0.017484006 -0.013618934 0.013793757 0.0155827245 0.009424894 -0.0069763167 -0.0076894
-0.02219296 -0.030273553 -8.0552476e-05 0.017495647 0.01215007 0.0061700917 0.012458935 -0.022018727
-0.016187 0.0025585128 0.006148825 -0.007523547 -0.016040003 -0.020280557 -0.02482002 0.02114404
0.010450287 -0.0130323535 0.009845918 -0.00819106 -0.015320117 0.00017721791 -0.020810157 -0.024109103
0.006244314 0.0012106677 -0.013396445 0.0022749852 -0.009114975 0.015564482 -0.00082473207 -0.008283374
-0.02043952 0.010288599 0.014451097 -0.025651194 -0.0038562203 -0.022693964 -0.0013256078 -0.009286223
-0.012481399 0.005588708 -0.010689305 -0.026268212 0.0028603147 -0.0142201735 -0.020404907 -0.0021263002
-0.018577658 0.0026306068 0.0062618186 -0.020804875 0.0030658646 -0.011500862 -0.02184888 0.02262511
-0.0118936375 -0.021733658 -0.013422932 -0.017358163 0.0024846806 -0.015809916 0.008340723 0.007022113
0.0132122105 0.0014082555 -0.00048398267 0.012618678 -0.019419907 -0.023601642 -0.010437467 -0.013272962
0.017819596 -0.012780057 -0.02515061 -0.018357927 -0.011834592 -0.008247736 -0.018700793 -0.011063445
-0.01409678 0.0046466943 0.016915627 -0.007119014 0.010818619 -0.0132044265 -0.00021365024 -0.020537248
-0.018766383 0.0035417527 -0.021682728 -0.011203854 0.001782354 -0.0034574955 0.00841611 -0.017069915
0.020136997 -0.012555838 0.011641513 -0.0068799346 -0.027597694 -0.012255841 0.0100352075 -0.021539347
-0.014422555 -0.005952558 0.013410916 -0.0004603633 0.013040013 -0.012832864 0.0026925332 0.017393667
-0.02545038 -0.0015874256 -0.00040520655 0.00047554602 0.00811958 0.013390139 -0.021768685 0.00019921166
-0.014194327 -0.012057024 -0.013038903 -0.005098459 -0.016156083 -0.020685816 -0.016787473 -0.0056817303
-0.0020356101 0.01852901 0.0033452953 0.005913228 -0.011323593 0.012471478 0.0012221026 0.02270998
-0.0036646847 -0.01480205 -0.017159602 0.0018112963 0.009132901 -0.0053000962 0.017453646 -0.00982235
0.025126627 -0.0019194573 -0.015297484 0.009226474 -0.014825418 0.013102536 0.022011299 0.026197642
0.026469858 -0.016120866 -0.016389564 -0.018272758 -0.005094064 0.012392585 -0.013969261 -0.0066903713
-0.01695365 0.02603812 0.023937667 0.02327346 0.032701287 0.023264226 0.013256227 -0.0052344073
0.021336274 0.00926962 0.028493036 0.006499246 -0.00020894798 -0.015837308 0.0124974605 0.00524532
0.025177948 0.028117163 0.019813908 -0.0022217273 0.012803151 0.029767402 0.011862322 0.021061094
0.022475647 -0.008143628 0.02678476 0.02098136 -0.0038316052 0.0017817653 0.024937838 0.02514779
0.0136379935 0.0003502005 0.021064332 0.014126487 0.017741824 0.03240555 0.018875012 0.011350329
0.034031495 -0.012030706 0.0060415636 0.029079605 -0.010095825 -0.0064137955 -0.0033738064 -0.002672842
00000000: 7ab4 0dbd 0328 6ebb def3 43bc dad0 e0bc
00000010: e18a 03bd 811d 8ebb aa82 95bc 6faf 98bc
00000020: 168e 98bc 5a4a 2f3c 5af1 c3bc 0e85 e8bc
00000030: d1ac c6bc 979a 6fbb 66f0 7dbc 97d1 b6bb
00000040: f7e3 333a 51ce 9abb 2d31 c2bc 6910 bd3b
00000050: ecb1 813c 77b0 00bc 7ef6 eeba 9baf b03a
00000060: 26e0 20bb 8cf9 babb 8ae5 adbc 96b9 90bc
00000070: e1c6 88bc 3a25 14bb e1ef debc 0be1 8fbc
00000080: 9a35 2cbc 68c0 60bc 3e4a b23a 5b7a 1a3c
00000090: ea51 b2bc 55b4 55bc 9942 7ebc 639c 6cbc
000000a0: 5618 e3bb 9e3a 8f3c f321 5fbc 36ff 613c
000000b0: af4e 7f3c df6a 1a3c 9699 e4bb 5df7 fbbb
000000c0: 03ce b5bc 3e00 f8bc 48ee a8b8 0853 8f3c
000000d0: 1611 473c 7b2e ca3b 9020 4c3c 9e60 b4bc
000000e0: 999a 84bc b9ac 273b 157c c93b 1688 f6bb
000000f0: 5366 83bc 6923 a6bc 5b53 cbbc 4436 ad3c
00000100: ae37 2b3c a785 55bc c650 213c cc33 06bc
00000110: 3a01 7bbc 92d3 3939 107a aabc 7480 c5bc
00000120: 1a9d cc3b 44af 9e3a c37c 5bbc eb17 153b
00000130: fa56 15bc 2b02 7f3c d532 58ba fdb6 07bc
00000140: c870 a7bc 8391 283c 4bc4 6c3c 7422 d2bc
00000150: a4b8 7cbb b1e8 b9bc 04c0 adba 3e25 18bc
00000160: c87e 4cbc 7b21 b73b 3222 2fbc 6f30 d7bc
00000170: 1e74 3b3b bbfb 68bc 3128 a7bc 6659 0bbb
00000180: 2c30 98bc 4266 2c3b f12f cd3b fc6e aabc
00000190: acec 483b 1d6e 3cbc 6cfc b2bc 4b58 b93c
000001a0: 88dd 42bc c90a b2bc dbeb 5bbc b532 8ebc
000001b0: 06d6 223b cc83 81bc 87a7 083c c119 e63b
000001c0: 0778 583c 3795 b83a 0ebf fdb9 92be 4e3c
000001d0: 7f16 9fbc 3b58 c1bc e901 2bbc d676 59bc
000001e0: 67fa 913c 7263 51bc a708 cebc 5d63 96bc
000001f0: e0e5 41bc 8321 07bc 6832 99bc 7443 35bc
00000200: 2ef6 66bc 4c43 983b a492 8a3c 9e46 e9bb
00000210: 9440 313c 6157 58bc 4d07 60b9 bb3d a8bc
00000220: f5bb 99bc c01c 683b fa9f b1bc 5f90 37bc
00000230: e09d e93a 2697 62bb b9e3 093c 35d6 8bbc
00000240: 58f6 a43c 00b7 4dbc 0bbc 3e3c 1371 e1bb
00000250: 8f14 e2bc b9cc 48bc b66a 243c 4973 b0bc
00000260: 954c 6cbc ad0d c3bb 75b9 5b3c eb5c f1b9
00000270: c7a5 553c ef40 52bc 3675 303b 2a7d 8e3c
00000280: 517d d0bc 2a11 d0ba e771 d4b9 b552 f939
00000290: fd07 053c 5062 5b3c 3e54 b2bc 79e3 5039
000002a0: 538f 68bc d38a 45bc 1fa1 55bc f910 a7bb
000002b0: c359 84bc 4d75 a9bc e285 89bc cf2d babb
000002c0: df67 05bb 26ca 973c be3c 5b3b c0c3 c13b
000002d0: 9786 39bc 2c55 4c3c f52e a03a 480a ba3c
000002e0: 352b 70bb 4c84 72bc 4b92 8cbc 0569 ed3a
000002f0: 2aa2 153c 6eac adbb f3fa 8e3c eced 20bc
00000300: 5bd6 cd3c 4d96 fbba 4ca2 7abc a32a 173c
00000310: 4fe6 72bc 05ac 563c 0a51 b43c 709c d63c
00000320: 51d7 d83c e80f 84bc 6843 86bc c0b0 95bc
00000330: 1bec a6bb 450a 4b3c 54df 64bc e73a dbbb
00000340: 62e2 8abc e54d d53c ed18 c43c fca7 be3c
00000350: c9f1 053d 9e94 be3c a530 593c 6485 abbb
00000360: 69c9 ae3c 9bdf 173c 3a6a e93c a1f7 d43b
00000370: 0c19 5bb9 3ebd 81bc 26c2 4c3c efe0 ab3b
00000380: fc41 ce3c f755 e63c c750 a23c 669a 11bb
00000390: 4fc4 513c c4da f33c 2f5a 423c 5188 ac3c
000003a0: d91e b83c da6c 05bc b76b db3c 1ae1 ab3c
000003b0: ab1b 7bbb 1f8a e93a 704a cc3c bd02 ce3c
000003c0: e471 5f3c 1e9b b739 1b8f ac3c c872 673c
000003d0: 4d57 913c afbb 043d c59f 9a3c bbf6 393c
000003e0: 9c64 0b3d 701c 45bc 4ff8 c53b 5a38 ee3c
000003f0: f668 25bc d12a d2bb 141b 5dbb d92a 2fbb

classifier.1.bias f4 [3]
-0.011551048 0.014630688 -0.005278322
00000000: 9b40 3dbc 8eb5 6f3c c6f5 acbb
